eeg-research/individual/gutenberger/main/model_weights/TUH_TUSZ/tusz_noNorm_noSeiz.pth (torch, 53874 bytes, 21 tensors)

conv1.0.weight f4 [18, 1, 18, 1]
-3.3409488 -3.536435 -9.306365 -24.888441 14.266698 6.8714643 -1.564917 0.8404576
8.135104 -2.6602123 -4.258712 6.1526413 0.42384395 -4.6446886 -4.99388 15.061258
6.2121334 -12.142083 5.312645 5.938494 4.087737 -4.6080265 -18.27325 5.8370256
0.344072 0.09053522 -5.8111567 4.317863 4.176762 -4.5645676 0.15554126 -2.9739492
-9.106445 -2.9779181 16.78568 11.08474 2.4857955 2.9349332 -9.816525 -7.8065953
-5.029274 -4.712471 4.7814093 5.5524583 4.315028 4.1254787 1.6736999 -1.6723493
0.23327479 -7.928116 -11.326496 8.314162 0.34550652 4.696636 -2.7917428 1.1872966
13.46842 -8.03185 -8.413956 -4.3424926 -8.808348 5.22153 5.3379035 -0.01258084
0.028772341 -5.2042713 -1.6091361 -9.624786 -13.257412 2.6132107 1.9215648 -6.167971
-4.4414177 -2.8544633 -0.87341535 5.232442 -5.509122 -1.4903857 -1.3095294 -3.0908556
11.218146 0.53191894 1.5164534 -0.21105172 1.1155121 -3.09528 -11.37248 2.6446884
3.6662836 -7.1006637 -5.89984 -3.4878132 6.358783 -12.60933 10.944622 -4.8855057
-1.6121424 0.5781993 0.4361905 1.006025 2.8382454 8.770037 1.00325 -1.9577487
-8.591974 -0.87657124 -4.420404 -1.6684417 0.21425009 1.0159494 3.1474955 -1.5974015
-7.5467186 13.098032 -4.716454 -0.51922196 -0.5102535 2.8639884 7.5609655 5.1146116
1.842881 -3.531538 -5.1996408 -0.13390343 -6.0354223 -2.2299356 -1.4988654 -0.9058779
3.673707 1.7137083 2.3082972 -5.180337 16.298147 -1.8805804 0.37508437 -0.20030369
1.0175575 6.674037 0.33406398 -0.35389718 -4.2374105 -0.26673403 -8.004946 -10.722211
-3.7379513 -6.635596 0.06068647 1.8420007 6.571898 0.8574778 -0.22076063 18.2821
0.37935385 -5.627678 -3.38657 -0.45269227 1.1725546 1.8586851 5.228943 -1.3482355
-13.673424 -13.292101 -5.070994 -6.247625 4.602746 -2.4746454 1.7846582 1.8231672
1.9155356 -2.064264 16.151205 -5.903308 -5.70519 -2.6838422 0.68192834 6.475442
2.2260332 0.6414682 -15.0706415 -6.3113112 -5.1364036 -0.7033715 2.8773975 -2.2329056
-1.128363 1.2877218 -1.9799675 -3.4199584 -4.1396437 4.414615 1.5020316 3.875319
0.007056905 -2.167217 4.234503 7.2747 -0.50104666 -9.0659275 -8.134897 -2.6823266
2.4705386 -10.931477 6.260314 -2.4556143 0.9843503 -1.4802196 -2.7408836 1.2654283
1.7539654 -1.5044419 -2.1704507 -1.7194921 -3.9261913 9.363751 6.319768 -4.041449
7.892836 4.610185 -1.3090607 7.2403436 -7.0999894 3.9444463 -3.7758944 -0.64148766
-5.209238 -3.7107131 -1.0020013 4.4626465 0.4212064 -1.6139257 -6.829284 -9.912839
11.428606 11.599261 12.522935 11.935635 -2.3011806 13.902528 2.8921406 -2.763711
-1.01396 -4.207864 -5.477821 10.382342 4.5222926 -11.467784 -1.5443957 -6.6318736
-0.99049443 -10.130568 1.3527702 15.493308 5.0902004 3.2912688 -0.8650546 12.355457
00000000: 1bd2 55c0 f354 62c0 dfe6 14c1 871b c7c1
00000010: 6544 6441 09e3 db40 334f c8bf 3b28 573f
00000020: 6329 0241 eb40 2ac0 5e47 88c0 70e2 c440
00000030: 1302 d93e 4aa1 94c0 ddcd 9fc0 eafa 7041
00000040: ccc9 c640 f945 42c1 3001 aa40 2508 be40
00000050: bece 8240 f474 93c0 9e2f 92c1 eac8 ba40
00000060: 352a b03e 886a b93d fff4 b9c0 ef2b 8a40
00000070: 09a8 8540 f010 92c0 3546 1f3e 2f55 3ec0
00000080: 00b4 11c1 3696 3ec0 1349 8641 185b 3141
00000090: 4617 1f40 f2d5 3b40 7d10 1dc1 a1cf f9c0
000000a0: d0ef a0c0 90cc 96c0 4e01 9940 bdad b140
000000b0: b614 8a40 ec03 8440 cc3b d63f 8b0f d6bf
000000c0: 96df 6e3e 20b3 fdc0 5439 35c1 cf06 0541
000000d0: 3be6 b03e d84a 9640 eaab 32c0 56f9 973f
000000e0: a67e 5741 7582 00c1 909f 06c1 b3f5 8ac0
000000f0: feee 0cc1 c616 a740 1bd0 aa40 de1f 4ebc
00000100: f9b3 eb3c 6489 a6c0 2cf8 cdbf 20ff 19c1
00000110: 5c1e 54c1 d83e 2740 d6f5 f53f 0560 c5c0
00000120: 1820 8ec0 87af 36c0 2698 5fbf 2a70 a740
00000130: ba4a b0c0 f5c4 bebf a99e a7bf 94d0 45c0
00000140: 877d 3341 d72b 083f 251b c23f f11d 58be
00000150: 1ac9 8e3f 1119 46c0 aef5 35c1 9342 2940
00000160: 64a4 6a40 a338 e3c0 7dcb bcc0 5538 5fc0
00000170: 267b cb40 d1bf 49c1 2c1d 2f41 1056 9cc0
00000180: af5a cebf df04 143f 5c54 df3e 6dc5 803f
00000190: d0a5 3540 1252 0c41 7f6a 803f 8297 fabf
000001a0: ba78 09c1 f966 60bf f373 8dc0 7f8f d5bf
000001b0: 6064 5b3e a10a 823f 9170 4940 a777 ccbf
000001c0: b87e f1c0 8a91 5141 31ed 96c0 bbeb 04bf
000001d0: f99f 02bf 964b 3740 6ef3 f140 e6aa a340
000001e0: 86e3 eb3f b804 62c0 7563 a6c0 fb1d 09be
000001f0: 2e22 c1c0 44b7 0ec0 d2da bfbf 9de7 67bf
00000200: 041e 6b40 cb5a db3f 24bb 1340 52c5 a5c0
00000210: 9b62 8241 dcb6 f0bf 0f0b c03e 691c 4dbe
00000220: 533f 823f b691 d540 6f0a ab3e 0332 b5be
00000230: de98 87c0 5d91 88be 4214 00c1 2d8e 2bc1
00000240: 983a 6fc0 cd56 d4c0 6092 783d aec6 eb3f
00000250: fd4c d240 aa83 5b3f 130f 62be be41 9241
00000260: ab3a c23e f015 b4c0 90bd 58c0 48c7 e7be
00000270: 4516 963f 65e9 ed3f 8053 a740 fb92 acbf
00000280: 58c6 5ac1 72ac 54c1 9545 a2c0 8bec c7c0
00000290: b249 9340 9760 1ec0 ae6f e43f 8b5d e93f
000002a0: 4530 f53f e71c 04c0 ab35 8141 e6e7 bcc0
000002b0: eb90 b6c0 12c4 2bc0 db92 2e3f d236 cf40
000002c0: 5477 0e40 4337 243f 5921 71c1 43f6 c9c0
000002d0: 6b5d a4c0 2810 34bf 4827 3840 ede7 0ec0
000002e0: 336e 90bf 11d4 a43f 936f fdbf 99e0 5ac0
000002f0: f677 84c0 8744 8d40 9242 c03f 3a05 7840
00000300: 9c3d e73b afb3 0ac0 0c81 8740 58ca e840
00000310: 9844 00bf 0a0e 11c1 8a28 02c1 3dab 2bc0
00000320: 4e1d 1e40 54e7 2ec1 7e54 c840 c928 1dc0
00000330: 62fe 7b3f d677 bdbf a36a 2fc0 8ef9 a13f
00000340: f081 e03f 8d91 c0bf aae8 0ac0 5118 dcbf
00000350: b846 7bc0 edd1 1541 8a3b ca40 8d53 81c0
00000360: 1d92 fc40 a386 9340 4d8f a7bf e5b0 e740
00000370: 1d33 e3c0 cf71 7c40 41a8 71c0 8938 24bf
00000380: 14b2 a6c0 537c 6dc0 9441 80bf 00ce 8e40
00000390: 5ea8 d73e 1e95 cebf 7f89 dac0 fd9a 1ec1
000003a0: 92db 3641 9396 3941 f15d 4841 5cf8 3e41
000003b0: 8b46 13c0 c170 5e41 d518 3940 a4e0 30c0
000003c0: 71c9 81bf d2a6 86c0 4f4a afc0 131e 2641
000003d0: 9fb6 9040 0b7c 37c1 c2ae c5bf 4f38 d4c0
000003e0: 0b91 7dbf ce16 22c1 9327 ad3f 97e4 7741
000003f0: ece2 a240 26a4 5240 3874 5dbf f4af 4541

conv1.0.bias f4 [18]
9.3021 12.341163 -0.65401757 -3.2482157 1.3340667 0.21651602 -14.378517 -4.07592
1.9587064 7.507677 -2.0481067 0.58973235 -9.672741 -5.0027466 -8.482408 3.4265857
1.4342653 8.555525
00000000: 67d5 1441 6775 4541 b26d 27bf c4e2 4fc0
00000010: b3c2 aa3f 60b6 5d3e 680e 66c1 f06d 82c0
00000020: e4b6 fa3f e43e f040 2e14 03c0 b3f8 163f
00000030: 8cc3 1ac1 8016 a0c0 f1b7 07c1 2e4d 5b40
00000040: 0196 b73f 6ee3 0841

conv2.0.weight f4 [18, 1, 1, 12]
-5.6488986 4.161562 6.7740083 12.483203 -15.561615 -29.80468 6.848992 -0.90897965
0.6370269 7.0400066 -2.049959 -0.09265419 1.3318095 1.6442832 2.271036 3.9100835
4.4730573 5.0491743 4.862951 4.4509535 2.432329 1.1759139 1.4491519 2.643188
-1.4338257 -2.5712323 -5.2718983 -6.684032 -7.0977807 -6.802017 -2.7957947 1.013637
4.195528 3.4521635 2.5169518 1.786289 -4.9351096 -2.8906283 2.252771 3.9493506
4.913833 5.7998576 5.243401 5.524944 3.4599352 3.6778882 3.2996767 2.7936196
0.7501545 0.94234824 0.20730193 1.1967168 2.6806886 2.9795656 4.1733475 4.365852
4.629227 8.370143 8.850527 2.4690325 6.1038613 5.472533 4.524191 4.280069
4.130968 3.944599 2.7091773 3.1747596 3.6590292 3.4463923 2.6734476 1.7289801
2.244373 2.5154068 3.269287 3.2642298 2.5489905 1.6555973 1.2184736 1.7471038
3.1583493 3.5764172 5.420872 8.387019 -5.821325 0.31043425 6.469723 5.6289706
6.8907247 9.395653 5.550342 0.80717254 -12.015 -9.333722 5.749993 0.92363614
3.9534519 -1.9254656 -8.222923 -8.8858 -9.431074 -7.0456233 0.24750175 2.86382
1.9493469 0.7062701 -1.6423281 -2.1450615 0.5713232 0.25162008 -0.55408907 -2.0087774
-2.0056922 -2.4171863 -2.6458414 -3.3367827 -3.357227 -4.8673887 -5.401821 -5.1854496
0.39776006 4.141724 7.645626 5.9709425 5.0106134 3.757522 4.9293194 4.675274
2.786073 2.867799 2.2651885 1.6420689 -4.4221187 -4.574361 -4.3740916 -4.3304367
-3.0558326 -2.7659652 -2.8275218 -2.570395 -2.439891 -2.2370598 -3.0356498 -2.215783
-1.0987437 -0.6152629 -0.43927124 -0.045014914 0.71068555 1.3186934 2.679744 4.4645476
4.795602 4.746464 4.864603 5.4312177 -4.196991 -3.6979504 -2.5394633 -2.740494
-2.836014 -2.7534447 -2.992661 -3.334917 -3.8163412 -4.257716 -4.2711263 -4.1436243
-3.3731565 -3.6423626 -3.3459353 -1.5735396 5.544384 6.09666 5.0502105 4.3630376
4.1595845 2.5196147 2.4625387 0.90170753 4.480726 3.7123291 -0.34860152 -5.0092783
-11.850122 -15.578822 -5.0275173 -1.0690367 1.1885334 2.0998738 0.6213915 -0.5171457
3.3162336 3.121339 3.2716935 1.8047009 3.0287123 3.5304782 3.2789319 5.5187745
6.8339667 6.8136787 1.7697153 -3.9277143 0.63765985 -2.923782 -6.7984843 -7.9520917
-7.329966 -5.8614 -0.292381 2.117245 2.4280636 2.1666825 0.9542358 -0.11319371
00000000: c7c3 b4c0 842b 8540 adc4 d840 33bb 4741
00000010: 60fc 78c1 fc6f eec1 f12a db40 e4b2 68bf
00000020: 3214 233f bc47 e140 8732 03c0 7bc1 bdbd
00000030: bc78 aa3f df77 d23f a758 1140 cf3e 7a40
00000040: 4923 8f40 d692 a140 4b9d 9b40 366e 8e40
00000050: 47ab 1b40 5984 963f cf7d b93f fe29 2940
00000060: 9a87 b7bf 128f 24c0 64b3 a8c0 97e3 d5c0
00000070: 0521 e3c0 20aa d9c0 4dee 32c0 dbbe 813f
00000080: c441 8640 3ff0 5c40 bd15 2140 1ea5 e43f
00000090: 6bec 9dc0 0e00 39c0 662d 1040 29c2 7c40
000000a0: 1f3e 9d40 6f98 b940 f1c9 a740 57cc b040
000000b0: 946f 5d40 8562 6b40 e72d 5340 aaca 3240
000000c0: 200a 403f bc3d 713f f546 543e 042e 993f
000000d0: 6790 2b40 34b1 3e40 108c 8540 0fb5 8b40
000000e0: a122 9440 1bec 0541 c29b 0d41 a104 1e40
000000f0: d552 c340 fe1e af40 2cc6 9040 53f6 8840
00000100: e430 8440 4f74 7c40 2963 2d40 432f 4b40
00000110: 892d 6a40 b191 5c40 c419 2b40 384f dd3f
00000120: cfa3 0f40 6dfc 2040 003c 5140 24e9 5040
00000130: a922 2340 9dea d33f f1f6 9b3f 19a1 df3f
00000140: 6522 4a40 05e4 6440 c977 ad40 3b31 0641
00000150: 4b48 bac0 3df1 9e3e f907 cf40 8720 b440
00000160: d180 dc40 9854 1641 679c b140 dca2 4e3f
00000170: 713d 40c1 ed56 15c1 f1ff b740 6b73 6c3f
00000180: 5b05 7d40 a875 f6bf 1891 03c1 3d2c 0ec1
00000190: aee5 16c1 bf75 e1c0 1971 7d3e d448 3740
000001a0: 3384 f93f 1ece 343f cf37 d2bf b048 09c0
000001b0: 3d42 123f 59d4 803e c8d8 0dbf cf8f 00c0
000001c0: 435d 00c0 2eb3 1ac0 7755 29c0 d98d 55c0
000001d0: cfdc 56c0 a6c1 9bc0 b8db acc0 34ef a5c0
000001e0: 35a7 cb3e 0189 8440 f8a8 f440 f611 bf40
000001f0: f256 a040 3e7b 7040 fcbc 9d40 d89b 9540
00000200: 054f 3240 058a 3740 d9f8 1040 502f d23f
00000210: ff81 8dc0 2a61 92c0 8ff8 8bc0 f092 8ac0
00000220: c392 43c0 9305 31c0 1ef6 34c0 5a81 24c0
00000230: 2d27 1cc0 fd2b 0fc0 1648 42c0 64cf 0dc0
00000240: a2a3 8cbf df81 1dbf 29e8 e0be 8f61 38bd
00000250: 7def 353f f2ca a83f ed80 2b40 93dd 8e40
00000260: 9275 9940 08e3 9740 d4aa 9b40 89cc ad40
00000270: c04d 86c0 38ab 6cc0 9186 22c0 4164 2fc0
00000280: 4181 35c0 7038 30c0 c287 3fc0 486f 55c0
00000290: ef3e 74c0 363f 88c0 11ad 88c0 9298 84c0
000002a0: cce1 57c0 781c 69c0 ce23 56c0 bf69 c9bf
000002b0: 986b b140 d717 c340 539b a140 019e 8b40
000002c0: 511b 8540 5e41 2140 3c9a 1d40 4ed6 663f
000002d0: 1b62 8f40 cd96 6d40 e67b b2be 024c a0c0
000002e0: 1a9a 3dc1 db42 79c1 6ce1 a0c0 32d6 88bf
000002f0: dd21 983f 5564 0640 8313 1f3f a963 04bf
00000300: 2c3d 5440 05c4 4740 6d63 5140 7000 e73f
00000310: 6cd6 4140 5bf3 6140 05da 5140 cd99 b040
00000320: dbaf da40 a809 da40 0886 e23f ac5f 7bc0
00000330: ad3d 233f 3f1f 3bc0 2f8d d9c0 8977 fec0
00000340: 158f eac0 9790 bbc0 f6b2 95be f180 0740
00000350: 6565 1b40 edaa 0a40 cc48 743f 1bd2 e7bd

conv2.0.bias f4 [18]
-6.6289845 -4.4039097 1.3336557 3.3722525 3.395051 5.1384315 -4.965019 -3.083685
-3.213526 -4.1483765 -2.2642338 -5.6469026 1.053458 -2.968476 2.22869 2.2709217
4.9147406 -3.1592388
00000000: a420 d4c0 d4ec 8cc0 3bb5 aa3f fcd2 5740
00000010: 8448 5940 086e a440 70e1 9ec0 185b 45c0
00000020: 69aa 4dc0 80bf 84c0 35e9 10c0 6db3 b4c0
00000030: b6d7 863f 83fb 3dc0 dba2 0e40 c856 1140
00000040: 8e45 9d40 f830 4ac0

conv2.1.weight f4 [18]
15.633456 4.197906 3.0846817 3.7104073 5.3585124 -1.7736818 -1.5568709 -4.4468546
2.8159733 0.13191834 -1.3799618 -0.055465754 -1.2361561 -0.72447413 1.8045918 4.200897
2.6359549 4.1331153
00000000: a322 7a41 3f55 8640 6d6b 4540 5077 6d40
00000010: ef78 ab40 0108 e3bf 8c47 c7bf a24c 8ec0
00000020: e838 3440 9a15 073e 97a2 b0bf 0f30 63bd
00000030: 5d3a 9ebf 2377 39bf ddfc e63f c06d 8640
00000040: 7cb3 2840 7b42 8440

conv2.1.bias f4 [18]
0.09631496 -0.8182615 -0.56826186 -1.5001957 0.3775767 -1.4808902 -0.086681224 -1.2870961
0.6954597 -1.3972614 3.5505424 -0.21825516 -0.27681598 1.1447079 3.4173949 -0.7297241
-0.9751027 0.9867359
00000000: c740 c53d 9679 51bf 9c79 11bf 6a06 c0bf
00000010: bc51 c13e cf8d bdbf ed85 b1bd 91bf a4bf
00000020: a609 323f 76d9 b2bf 163c 6340 487e 5fbe
00000030: d3ba 8dbe ca85 923f 99b6 5a40 33cf 3abf
00000040: 55a0 79bf b99a 7c3f

conv2.1.running_mean f4 [18]
-5.9774313 -5.8192544 2.1177933 2.0587187 1.746896 3.32272 -6.510221 -3.6683855
-2.0365753 -2.9216752 -4.0908766 -4.108172 -0.008268408 -1.3218638 1.4671865 3.3610394
3.3969576 -2.2453206
00000000: 1e47 bfc0 5537 bac0 ed89 0740 0cc2 0340
00000010: 4a9a df3f 72a7 5440 bb53 d0c0 d4c6 6ac0
00000020: 4057 02c0 bafc 3ac0 76e8 82c0 2576 83c0
00000030: 3778 07bc d532 a9bf c4cc bb3f 451b 5740
00000040: c167 5940 55b3 0fc0

conv2.1.running_var f4 [18]
5913.3057 10300.432 7499.182 11329.56 14734.677 15592.5625 10820.699 5645.6777
9584.426 8265.793 16982.18 11099.881 7347.528 12366.477 6055.6377 11089.187
12185.618 7431.0303
00000000: 72ca b845 baf1 2046 7559 ea45 3d06 3146
00000010: b53a 6646 40a2 7346 cc12 2946 6c6d b045
00000020: b4c1 1546 2c27 0146 5cac 8446 866f 2d46
00000030: 399c e545 e839 4146 1a3d bd45 bf44 2d46
00000040: 7966 3e46 3e38 e845

conv3.0.weight f4 [18, 18, 1, 12]
-3.2314143 2.897558 -5.027237 -4.3618817 8.701842 -21.621075 -12.917125 -1.8142521
-5.5676103 -2.6996026 -4.3801813 1.1174582 -3.6261885 -3.7093155 -3.3359828 -2.0680652
2.6224132 5.3561544 4.8383794 4.9959345 5.0153766 5.543953 5.8175063 1.5700779
0.35006505 0.105141565 -0.46584058 -1.5770239 -4.06507 -5.0749364 -5.0580025 -5.3042808
-5.1573925 -4.595016 -3.759211 -2.5466466 -1.6872934 -1.8255148 -0.9581702 1.6919826
3.376089 4.340081 4.15788 4.446285 4.7006397 4.564527 4.6241794 4.0665026
8.105744 6.1676583 2.1280036 -1.1068237 -2.8461328 -3.1489866 -3.596221 -3.7457957
-3.7835348 -3.6997073 -3.505583 -2.0937426 -3.52898 -3.098002 -2.5796437 -2.6911032
-2.73213 1.0481718 3.4859369 2.2028513 2.4479887 4.022431 4.2268896 4.285603
1.8467604 2.6643605 2.420977 2.160372 1.571293 -0.00212048 -0.48925242 -0.8623193
-0.82733107 -1.9208676 -2.996318 -3.3441489 -1.4863569 1.4038916 -0.65372807 -4.7077146
-5.440811 -5.4314547 -1.5107827 -0.06219547 -1.5341234 3.111943 8.649559 0.38230723
-1.6010962 -1.4228004 -2.2571478 -2.99235 -4.424017 -6.9643316 -5.3728743 -5.385943
-6.0287356 -5.7970085 -4.82694 -4.933638 -4.9425035 -3.7577274 -0.90106577 0.782356
1.8384467 3.558647 2.243649 2.1403737 2.2146862 2.5121324 3.9648015 4.1746964
-2.4251983 -2.8666816 -3.1401126 -3.3417325 -3.3197844 -3.8513165 -1.9212371 1.3932838
1.969021 2.0437334 2.1270692 1.986775 -3.9817913 -3.2836199 -2.3000162 -1.21806
-0.25541025 0.6380624 0.62050956 -1.4535997 -4.4712663 -4.79353 -4.3148537 -2.349916
1.6993821 1.9443363 2.182551 2.2320197 2.3591082 2.415882 2.4226751 2.1108434
1.9316093 2.0367894 1.9798661 1.8044026 -0.6891079 -1.7543906 -1.7476586 -1.4300053
-1.5906492 -3.716906 -4.7623086 -4.7335863 -4.1552634 -1.1439394 -0.10256071 -0.54852456
-0.3840048 0.26962575 2.0696921 3.3536637 3.8639977 4.344966 2.9382179 2.7827094
2.7905462 2.7901092 2.582944 2.9921608 -0.92531794 -1.5525736 -3.4853616 -5.097867
-5.9123554 -7.9220004 -6.326555 -6.038159 -5.5865536 -5.1230874 -4.5933266 -4.545865
3.8119836 5.079961 5.110198 5.559442 4.941023 5.561634 3.1822248 1.3990338
2.2315001 4.536318 5.948121 6.1961594 -0.05107097 -0.11574099 -1.7176213 -2.2403758
-3.7216318 -5.2625217 -4.4976287 -4.607032 -4.654087 -4.4729643 -4.197939 -3.9458687
2.1440904 4.9103723 4.629788 4.2191095 1.7620089 -1.6812844 -0.799749 -0.10658595
-1.7564186 -1.5518242 -0.62550473 -1.5030503 -0.66872156 -2.085831 -3.9248414 -4.7083087
-4.7856126 -4.7587523 -4.36539 -3.4487703 0.2233877 2.6817985 3.1675167 2.6357431
4.525198 4.520749 4.68678 4.7023177 4.960856 5.0583997 5.330287 5.3203654
5.423324 5.4276853 4.578052 2.394489 -4.1420484 -4.031651 -3.866133 -2.4466224
00000000: 7ecf 4ec0 9771 3940 20df a0c0 8994 8bc0
00000010: bf3a 0b41 f6f7 acc1 8bac 4ec1 6a39 e8bf
00000020: dd29 b2c0 4ac6 2cc0 722a 8cc0 df08 8f3f
00000030: 7913 68c0 6d65 6dc0 be80 55c0 2e5b 04c0
00000040: 9ed5 2740 9e65 ab40 01d4 9a40 b2de 9f40
00000050: f77d a040 1068 b140 0329 ba40 50f8 c83f
00000060: ba3b b33e 7654 d73d a882 eebe ebdb c9bf
00000070: 0e15 82c0 e165 a2c0 28db a1c0 abbc a9c0
00000080: 5c09 a5c0 5f0a 93c0 ea96 70c0 42fc 22c0
00000090: 3bf9 d7bf 78aa e9bf a44a 75bf e392 d83f
000000a0: d811 5840 f2e1 8a40 5a0d 8540 f747 8e40
000000b0: a46b 9640 9b10 9240 47f9 9340 ca20 8240
000000c0: 21b1 0141 755d c540 3631 0840 66ac 8dbf
000000d0: 0a27 36c0 ff88 49c0 7c28 66c0 1ebb 6fc0
000000e0: 6f25 72c0 01c8 6cc0 795b 60c0 e1ff 05c0
000000f0: cfda 61c0 aa45 46c0 e218 25c0 093b 2cc0
00000100: 38db 2ec0 7e2a 863f 9719 5f40 84fb 0c40
00000110: d9ab 1c40 c1b7 8040 ae42 8740 a923 8940
00000120: a562 ec3f e284 2a40 4af1 1a40 8943 0a40
00000130: 2120 c93f c0f7 0abb 4b7f fabe f5c0 5cbf
00000140: f8cb 53bf fdde f5bf adc3 3fc0 8906 56c0
00000150: f140 bebf b8b2 b33f b95a 27bf 99a5 96c0
00000160: 201b aec0 7ace adc0 5461 c1bf adc0 7ebd
00000170: 285e c4bf 132a 4740 9864 0a41 c6bd c33e
00000180: b8f0 ccbf 531e b6bf 1c75 10c0 aa82 3fc0
00000190: 8c91 8dc0 cedb dec0 96ee abc0 a559 acc0
000001a0: 67eb c0c0 1881 b9c0 4b76 9ac0 5de0 9dc0
000001b0: fd28 9ec0 9b7e 70c0 3fac 66bf 7c48 483f
000001c0: 3952 eb3f dfc0 6340 f297 0f40 e2fb 0840
000001d0: 6bbd 0d40 c7c6 2040 4fbf 7d40 1d97 8540
000001e0: 7336 1bc0 b677 37c0 9bf7 48c0 f2de 55c0
000001f0: 5977 54c0 f87b 76c0 19eb f5bf 2057 b23f
00000200: e108 fc3f 87cc 0240 e721 0840 a54e fe3f
00000210: abd5 7ec0 d426 52c0 7733 13c0 64e9 9bbf
00000220: 22c5 82be 0f58 233f b7d9 1e3f 8e0f babf
00000230: 9d14 8fc0 9964 99c0 4813 8ac0 0665 16c0
00000240: 5a85 d93f 03e0 f83f eaae 0b40 69d9 0e40
00000250: a1fb 1640 d09d 1a40 1c0d 1b40 0f18 0740
00000260: f93e f73f c25a 0240 416c fd3f aaf6 e63f
00000270: 6069 30bf df8f e0bf 47b3 dfbf 6a0a b7bf
00000280: 659a cbbf cae1 6dc0 d564 98c0 8a79 97c0
00000290: ebf7 84c0 9b6c 92bf 590b d2bd 1b6c 0cbf
000002a0: 479c c4be 630c 8a3e d675 0440 6da2 5640
000002b0: bd4b 7740 f609 8b40 c30b 3c40 e917 3240
000002c0: 4f98 3240 2691 3240 f44e 2540 907f 3f40
000002d0: a3e1 6cbf bbba c6bf 2a10 5fc0 ba21 a3c0
000002e0: 0432 bdc0 0781 fdc0 2373 cac0 9938 c1c0
000002f0: 0cc5 b2c0 55f0 a3c0 88fc 92c0 ba77 91c0
00000300: 8af7 7340 0a8f a240 be86 a340 f3e6 b140
00000310: dc1c 9e40 e8f8 b140 92a9 4b40 8a13 b33f
00000320: e6d0 0e40 8429 9140 0257 be40 f046 c640
00000330: cb2f 51bd 9d09 edbd 04db dbbf 5162 0fc0
00000340: 372f 6ec0 9466 a8c0 93ec 8fc0 ce6c 93c0
00000350: 48ee 94c0 8622 8fc0 8455 86c0 1d89 7cc0
00000360: c738 0940 c521 9d40 3927 9440 f202 8740
00000370: 8289 e13f 5434 d7bf 5abc 4cbf bc49 dabd
00000380: 53d2 e0bf 2da2 c6bf 1421 20bf f463 c0bf
00000390: 5631 2bbf 417e 05c0 9a30 7bc0 77aa 96c0
000003a0: bd23 99c0 b347 98c0 46b1 8bc0 a7b8 5cc0
000003b0: bfbf 643e 96a2 2b40 98b8 4a40 04b0 2840
000003c0: 6cce 9040 faa9 9040 1afa 9540 6379 9640
000003d0: 55bf 9e40 69de a140 b691 aa40 6f40 aa40
000003e0: df8b ad40 99af ad40 677f 9240 4f3f 1940
000003f0: a98b 84c0 4903 81c0 b96e 77c0 7695 1cc0

conv3.0.bias f4 [18]
4.26154 -0.27360567 -2.7189221 2.309567 2.5666745 3.5540392 0.14723593 0.48763794
-0.98430777 -3.4612882 -2.0374444 2.1938512 -1.8026824 -1.7479333 0.8227647 0.2999646
2.2774987 3.349285
00000000: 895e 8840 0b16 8cbe d202 2ec0 f2cf 1340
00000010: 6544 2440 6175 6340 04c5 163e aeab f93e
00000020: 98fb 7bbf bf85 5dc0 7d65 02c0 0f68 0c40
00000030: 4cbe e6bf 47bc dfbf b5a0 523f f694 993e
00000040: 8ac2 1140 af5a 5640

conv3.1.weight f4 [18]
1.9087281 1.0634354 2.3069239 -0.91641575 0.31113133 11.130508 0.39720318 -1.4989476
1.0462251 6.8954916 -2.3224003 0.38817838 12.035892 0.7529309 0.97750974 -1.4418765
1.7336403 -0.26187965
00000000: 3451 f43f a71e 883f a4a4 1340 399a 6abf
00000010: 9b4c 9f3e 9016 3241 375e cb3e 84dd bfbf
00000020: b4ea 853f dea7 dc40 35a2 14c0 51bf c63e
00000030: 0393 4041 14c0 403f 143e 7a3f 698f b8bf
00000040: ede7 dd3f 1715 86be

conv3.1.bias f4 [18]
1.076248 -9.58071 1.8138313 -1.9430935 -5.4627357 -0.2745459 -0.29835987 -4.5205827
2.1095018 2.1586637 5.482855 -3.2485044 -0.9359742 1.4050416 1.602569 -2.0380337
1.8787014 8.406873
00000000: 7fc2 893f 974a 19c1 a02b e83f 4ab7 f8bf
00000010: bbce aec0 4891 8cbe a0c2 98be 9da8 90c0
00000020: 1402 0740 8c27 0a40 8c73 af40 7fe7 4fc0
00000030: 019c 6fbf 67d8 b33f fb20 cd3f 256f 02c0
00000040: 4a79 f03f 8d82 0641

conv3.1.running_mean f4 [18]
-122.83295 258.63455 70.590965 -183.44173 265.6357 -63.603184 -21.393736 18.294977
-96.20505 -111.41195 -44.94183 -74.39001 21.276464 97.13073 109.96898 -192.00543
204.36763 90.43161
00000000: 78aa f5c2 3951 8143 932e 8d42 1571 37c3
00000010: 5fd1 8443 a969 7ec2 5f26 abc1 1d5c 9241
00000020: fc68 c0c2 ebd2 dec2 6fc4 33c2 afc7 94c2
00000030: 3336 aa41 ef42 c242 1ef0 db42 6401 40c3
00000040: 1d5e 4c43 fcdc b442

conv3.1.running_var f4 [18]
1.7774942e+06 797176.94 1.4318781e+06 556773.1 264648.47 1.4288725e+06 559293.06 318781.78
950152.5 2.0880602e+06 2.0111266e+06 337585.62 2.2251205e+06 788527.5 666476.75 481632.84
472430.06 950951.56
00000000: b2fa d849 8f9f 4249 31ca ae49 52ee 0749
00000010: 0f39 8148 446c ae49 d18b 0849 b9a7 9b48
00000020: 88f8 6749 e2e3 fe49 b57f f549 34d6 a448
00000030: 82cf 074a f882 4049 ccb6 2249 1b2c eb48
00000040: c2ad e648 792a 6849

conv4.0.weight f4 [18, 18, 18, 1]
5.309851 1.5253152 -1.4423071 0.5320854 1.2131549 1.6458265 -4.0068903 1.2014556
1.6484201 2.2395964 -1.4666214 0.5842704 -4.7717338 -4.578798 -3.964835 -1.7945039
2.7420385 3.0822246 -1.6187065 -2.4488773 -5.1360974 -0.55441463 3.5243092 -3.630325
-5.1773534 -4.1494417 -1.085607 5.0475297 1.928524 -4.002469 1.7918811 0.5654191
-0.3138864 0.2575779 2.2289472 4.9895606 -5.025079 0.2559742 -1.0972522 -2.234598
-1.5394512 1.178771 5.2560754 10.187352 1.2708926 0.040021557 1.6600939 -1.2336471
5.3434615 4.895711 3.3052359 0.35951117 -2.0407722 -3.5581822 0.6161354 -5.3951397
7.134127 6.282271 2.737443 -4.3358755 -5.43758 -2.1649036 -6.817263 -5.8002543
-4.269641 9.681763 -2.1134596 3.4809532 2.2706106 2.0824018 -3.860244 -3.7594762
-4.9119153 -0.85315245 -3.5643153 -2.0243058 2.880504 2.6643097 -4.2387075 -5.0246024
-1.835337 4.3657713 -0.5530676 -2.5237107 -0.29590544 2.3189104 -1.3088158 -4.611235
1.3565005 3.9006393 -5.3605657 0.05113593 -6.1888914 -4.783963 2.2960117 7.542529
3.935837 5.9989424 3.7967513 3.1162648 0.060429554 -8.981596 3.9314473 3.0073473
0.7744202 0.968935 2.7006195 0.39700168 -3.7169805 0.9178772 3.8417568 1.5141855
-2.9038332 -3.3031228 3.9400692 3.9511905 -2.8478837 -4.695208 2.173603 2.364188
4.2715983 -2.0440052 4.579424 4.3051047 -4.0845866 -4.2475443 1.0736437 1.3312424
-6.4816027 -1.1637974 3.455805 3.955485 -3.4152956 -1.3392916 5.538758 7.1122704
-2.0201075 -7.1432514 -2.8295193 -3.11095 -5.4280767 -3.4445465 5.068386 5.4749045
-4.928307 -1.4262879 -12.0272455 -3.5184784 -1.7225164 0.12932429 3.0414464 8.79153
4.18633 3.034926 1.8758965 -0.29032505 5.322706 1.796415 2.0493443 -2.9927087
-3.4282002 -2.1841626 4.622645 1.9880689 4.7728214 2.5020044 -6.098645 -7.2476163
-1.8866577 -1.3960171 -3.5412564 -3.917019 2.328401 6.718443 -1.6677101 -6.5106997
-0.79476494 1.028186 -3.4025266 0.3386609 -3.3063507 -3.501386 2.4969394 0.105106935
-1.1603812 -0.7720731 2.0679646 5.3488073 -2.8391085 -3.3040667 -1.0904274 3.0566468
6.1692405 6.7098494 3.1134424 2.6526835 -2.805019 -6.7813206 1.2347806 -3.6080954
4.621877 4.9077897 4.4405622 2.6846027 -3.4626 2.7503486 -4.717972 -4.479422
-4.9180837 3.6580064 -2.7116444 -2.0067365 -0.7845236 3.7689755 -3.4723141 -3.6545715
-5.4739413 -2.1285439 -8.511774 -3.432963 3.1717863 6.73266 3.3810554 3.463197
2.6135569 2.0445004 -0.2426816 -8.05684 4.6941547 5.173984 0.8298335 -2.6119325
-0.35349396 -0.9144489 4.0462914 0.6230468 -6.6751695 -1.457261 3.010028 4.405035
-2.1638322 -3.7387984 2.701826 5.1582317 -0.12157472 -4.0884504 -3.4928923 -0.9361871
-5.2321143 -5.4105625 1.0874925 3.5039682 -2.2283642 6.058696 -3.92072 -4.6719675
00000000: 4dea a940 873d c33f 859d b8bf c036 083f
00000010: a948 9b3f 71aa d23f 7238 80c0 4cc9 993f
00000020: 6eff d23f 8c55 0f40 40ba bbbf bf92 153f
00000030: 0bb2 98c0 8385 92c0 dbbf 7dc0 4eb2 e5bf
00000040: 8f7d 2f40 2b43 4540 c631 cfbf 68ba 1cc0
00000050: e95a a4c0 1eee 0dbf 488e 6140 3f57 68c0
00000060: e1ac a5c0 3ac8 84c0 2cf5 8abf 5d85 a140
00000070: e0d9 f63f 3a14 80c0 5c5c e53f 4ebf 103f
00000080: b8b5 a0be 40e1 833e 12a7 0e40 7baa 9f40
00000090: 72cd a0c0 0d0f 833e c372 8cbf a703 0fc0
000000a0: bd0c c5bf f8e1 963f c531 a840 65ff 2241
000000b0: 9cac a23f a5ed 233d f57d d43f 26e8 9dbf
000000c0: a3fd aa40 aaa9 9c40 fc88 5340 d911 b83e
000000d0: 039c 02c0 42b9 63c0 0dbb 1d3f fca4 acc0
000000e0: c54a e440 5d08 c940 4432 2f40 7ebf 8ac0
000000f0: a800 aec0 c88d 0ac0 0527 dac0 af9b b9c0
00000100: e6a0 88c0 80e8 1a41 ec42 07c0 f0c7 5e40
00000110: af51 1140 1246 0540 3d0e 77c0 429b 70c0
00000120: 692e 9dc0 3368 5abf be1d 64c0 3a8e 01c0
00000130: 2d5a 3840 0d84 2a40 7ea3 87c0 8bc9 a0c0
00000140: 53ec eabf 66b4 8b40 d795 0dbf 7a84 21c0
00000150: eb80 97be 0769 1440 4787 a7bf 3d8f 93c0
00000160: cfa1 ad3f 13a4 7940 c189 abc0 e973 513d
00000170: 660b c6c0 3a16 99c0 dbf1 1240 665c f140
00000180: c1e4 7b40 56f7 bf40 f9fd 7240 e270 4740
00000190: fb84 773d 9eb4 0fc1 d59c 7b40 6178 4040
000001a0: 6740 463f 200c 783f f3d6 2c40 ce43 cb3e
000001b0: 02e3 6dc0 00fa 6a3f 58df 7540 d5d0 c13f
000001c0: 67d8 39c0 5d66 53c0 182a 7c40 4ee0 7c40
000001d0: ba43 36c0 253f 96c0 501c 0b40 db4e 1740
000001e0: efb0 8840 fbd0 02c0 a48a 9240 6bc3 8940
000001f0: efb4 82c0 e2eb 87c0 286d 893f 2766 aa3f
00000200: 4a69 cfc0 50f7 94bf e92b 5d40 ab26 7d40
00000210: 3494 5ac0 e86d abbf 813d b140 b897 e340
00000220: 7149 01c0 8495 e4c0 d816 35c0 ce19 47c0
00000230: ceb2 adc0 7373 5cc0 3830 a240 6b32 af40
00000240: b1b4 9dc0 9a90 b6bf 996f 40c1 c02e 61c0
00000250: 6b7b dcbf 966d 043e 0fa7 4240 1baa 0c41
00000260: 6af6 8540 3a3c 4240 601d f03f 7ca5 94be
00000270: 9c53 aa40 edf0 e53f 7528 0340 8a88 3fc0
00000280: a267 5bc0 52c9 0bc0 b5ec 9340 0b79 fe3f
00000290: f4ba 9840 d720 2040 1a28 c3c0 79ec e7c0
000002a0: 007e f1bf b0b0 b2bf f2a3 62c0 70b0 7ac0
000002b0: 8604 1540 7cfd d640 8677 d5bf a757 d0c0
000002c0: b775 4bbf 999b 833f ffc2 59c0 f664 ad3e
000002d0: 409b 53c0 b516 60c0 dbcd 1f40 4e42 d73d
000002e0: 5f87 94bf 95a6 45bf 8859 0440 6e29 ab40
000002f0: f4b3 35c0 d475 53c0 2093 8bbf 1aa0 4340
00000300: 6b6a c540 16b7 d640 a442 4740 91c5 2940
00000310: 6e85 33c0 9400 d9c0 4a0d 9e3f 09eb 66c0
00000320: 6be6 9340 9d0c 9d40 1619 8e40 88d0 2b40
00000330: 3d9b 5dc0 b605 3040 a0f9 96c0 6d57 8fc0
00000340: f160 9dc0 c71c 6a40 958b 2dc0 5f6e 00c0
00000350: 8ad6 48bf e536 7140 653a 5ec0 80e4 69c0
00000360: 872a afc0 103a 08c0 3a30 08c1 aab5 5bc0
00000370: 8cfe 4a40 f371 d740 3663 5840 05a5 5d40
00000380: 8444 2740 18d9 0240 8681 78be d1e8 00c1
00000390: 8436 9640 4791 a540 f86f 543f e729 27c0
000003a0: 29fd b4be 5319 6abf 387b 8140 ff7f 1f3f
000003b0: fd9a d5c0 8787 babf 4ca4 4040 0cf6 8c40
000003c0: 3a7c 0ac0 7948 6fc0 b8ea 2c40 3c10 a540
000003d0: 2bfc f8bd 96d4 82c0 8c8b 5fc0 f5a9 6fbf
000003e0: 7b6d a7c0 5423 adc0 f432 8b3f 0441 6040
000003f0: 859d 0ec0 d6e0 c140 14ed 7ac0 c280 95c0

conv4.0.bias f4 [18]
-1.9535302 -3.5952356 -1.8694748 2.7361605 4.9999027 -0.84585273 -4.6236777 -3.469089
-3.4999769 -6.1861687 -3.62372 1.1785719 1.8207549 2.1800835 0.3769518 -4.5307155
4.622727 -3.6214492
00000000: 470d fabf 5718 66c0 f34a efbf 411d 2f40
00000010: 34ff 9f40 ce89 58bf 2bf5 93c0 8e05 5ec0
00000020: 9fff 5fc0 18f5 c5c0 07eb 67c0 72db 963f
00000030: 7f0e e93f 7d86 0b40 d4ff c03e 9ffb 90c0
00000040: 61ed 9340 d3c5 67c0

conv4.1.weight f4 [18]
0.102416605 0.0208809 0.21133469 -0.8484622 2.8160677 0.1404917 0.44544277 2.7515118
0.36953303 -0.039975137 2.0485985 -0.27884862 -0.28742504 0.03255584 0.32964614 -0.0055068177
-0.10270959 -0.740187
00000000: ccbf d13d 6c0e ab3c 1f68 583e d234 59bf
00000010: 743a 3440 0edd 0f3e 1311 e43e c518 3040
00000020: 6f33 bd3e f8bc 23bd 3d1c 0340 3fc5 8ebe
00000030: 6029 93be 4659 053d 61c7 a83e 8972 b4bb
00000040: 6859 d2bd e57c 3dbf

conv4.1.bias f4 [18]
0.051049363 0.0886299 0.09088929 -0.10329213 0.042639453 0.026881656 -0.20852642 0.13717225
0.2561826 -0.33081722 0.050029956 -0.036526106 0.16481617 -0.09528275 -0.04540286 0.19516517
-0.43148932 0.056868795
00000000: 2319 513d 9883 b53d 2a24 ba3d d38a d3bd
00000010: b5a6 2e3d eb36 dc3c f387 55be e276 0c3e
00000020: 5e2a 833e e060 a9be 36ec 4c3d 669c 15bd
00000030: 92c5 283e 9a23 c3bd 59f8 39bd 61d9 473e
00000040: 2bec dcbe 41ef 683d

conv4.1.running_mean f4 [18]
126.326004 221.3622 -310.36102 192.82751 -34.755314 -73.14043 -12.016888 252.88246
-280.81564 413.29895 47.41248 210.83914 -336.6486 101.42501 104.781525 519.1824
-396.9489 -101.19516
00000000: eaa6 fc42 b95c 5d43 362e 9bc3 d8d3 4043
00000010: 7105 0bc2 e647 92c2 2c45 40c1 e9e1 7c43
00000020: 6768 8cc3 44a6 ce43 61a6 3d42 d2d6 5243
00000030: 0553 a8c3 9bd9 ca42 2490 d142 accb 0144
00000040: 7679 c6c3 ec63 cac2

conv4.1.running_var f4 [18]
289088.12 346229.4 1.0800104e+06 504319.88 456704.78 879673.2 908524.3 685098.6
626432.56 354074.66 514633.2 613803.94 238005.06 351319.8 839984.5 700422.06
444670.7 1.1342238e+06
00000000: 0428 8d48 ad0e a948 53d6 8349 fc3f f648
00000010: 1900 df48 93c3 5649 c5ce 5d49 aa42 2749
00000020: 09f0 1849 55e3 ac48 2649 fb48 bfda 1549
00000030: 446d 6848 fa8a ab48 0813 4d49 6100 2b49
00000040: d61f d948 7e74 8a49

conv5.weight f4 [1, 18, 18, 1]
-1.2233361 0.61274964 0.93137497 -0.22625303 0.040950615 -1.1407137 0.10948709 -0.079943165
0.12795766 0.037385724 -0.8900453 0.296137 0.0019127317 -0.22306769 0.5873728 -1.6159489
0.8905179 -0.17918526 -0.613456 0.35468125 1.4892998 2.1749215 0.55022347 -0.84788895
1.6793526 0.7175478 -0.06356281 1.0409712 -0.11874948 -0.07887675 0.09037187 -0.7241901
-0.3678225 0.014631403 -1.2171158 0.7962164 0.36756858 2.7942376 -0.97581375 -1.4666884
-2.0503993 -0.34509444 0.28339356 1.6693667 -0.2283502 -1.367446 -1.4455707 -0.11744155
0.31732383 2.490748 -0.8016774 1.8726531 0.8281629 1.2881947 -3.350014 2.2122593
0.63395864 0.03541924 -0.89534014 4.087484 0.32675192 0.5297543 1.073879 0.7771547
-0.42454097 -1.6121119 -3.3517864 0.9514465 0.55107933 1.0535488 1.5419983 3.685371
-1.2695271 -4.512535 1.230239 3.59997 -1.0162696 1.0375147 2.3046083 2.4384673
-1.6766639 1.9895196 -2.0940576 2.6617455 -0.0020053624 -4.3843303 -5.8049374 0.18530312
0.65614396 -1.3318076 -1.3160362 2.012641 -0.2969295 0.5529543 3.2708972 0.5134689
-1.2827176 1.28686 1.2884241 1.9359217 2.391249 -0.0055120643 -0.20792809 -0.2459707
-0.050412253 0.08509028 2.3529756 -2.9948738 1.4743935 -0.47026893 0.8484465 -0.932906
-0.9735929 -1.0741675 -0.118289046 0.6118756 0.4888716 -0.9275523 0.29660603 -1.5362818
-2.6158013 -0.5082557 2.8971694 -0.9452425 -2.023325 0.90281785 -2.7961366 4.1281376
-1.307411 -3.0701025 -3.560858 2.1257958 4.399242 -3.1983657 2.8907933 -0.7207435
-0.28882867 -1.2943895 -3.5523758 -2.5728037 -0.39611745 -3.9984457 -3.7740154 -4.435927
0.858525 0.905103 0.57507384 -0.39792994 -3.0282168 1.1127875 1.0274369 -0.66959417
0.10099193 0.4892884 -0.79619557 0.32597774 1.1047937 -1.5665973 -3.188553 -0.90568924
0.5794414 -1.3536692 1.3244838 0.6388364 -1.401555 0.28740302 -0.38566905 -0.13168365
-0.73397577 0.19990215 -0.9048892 -1.2569412 0.36355457 1.3070654 -0.7512325 1.5060235
1.1685016 0.9537129 0.34607697 0.9467591 -4.7394857 -0.68687344 -1.7307705 0.21676987
-0.22097273 -1.0887867 3.205141 1.7752239 -3.4487655 -2.0072825 -4.9280133 1.2832907
1.7110121 -0.48934647 1.0687344 5.215932 2.967646 -2.014811 -0.09384847 -0.583635
-0.6928954 -0.09521263 0.88834786 -1.1466905 0.81977004 1.28685 1.3298583 0.058124453
-2.2189393 0.12408943 -0.37385398 -0.47621432 -0.5771313 -0.6340917 -0.5129236 -0.33875403
-0.0729646 -0.8633148 -0.6120899 -0.51613104 1.4615551 -0.10782736 0.4551979 -1.3737283
0.28611785 1.5019263 -0.44973224 0.4368433 -0.89215916 -1.0201459 -0.035329074 0.87282526
-0.14691998 -0.67030126 -2.0454223 2.034566 0.039671563 0.6544717 -0.43935448 0.12042147
0.02957336 0.30562893 0.5097632 0.2391889 -0.5087205 -0.13691147 -0.9610085 0.9439203
0.37901106 -0.4407954 -0.92043257 0.14447509 -1.1705866 -0.5812098 1.021228 1.3874305
00000000: 4796 9cbf 29dd 1c3f 976e 6e3f e0ae 67be
00000010: d5bb 273d e802 92bf c43a e03d 3eb9 a3bd
00000020: 5507 033e c621 193d 02da 63bf 459f 973e
00000030: a0b4 fa3a db6b 64be 105e 163f 6ad7 cebf
00000040: fbf8 633f 577c 37be 740b 1dbf c898 b53e
00000050: 60a1 be3f ea31 0b40 72db 0c3f 400f 59bf
00000060: 07f5 d63f 36b1 373f 382d 82bd 8b3e 853f
00000070: ed32 f3bd 228a a1bd e314 b93d 8664 39bf
00000080: 3b53 bcbe 8db8 6f3c 73ca 9bbf d7d4 4b3f
00000090: f331 bc3e cad4 3240 eece 79bf 72bc bbbf
000000a0: be39 03c0 38b0 b0be f618 913e cfad d53f
000000b0: a3d4 69be 7808 afbf 7608 b9bf 3285 f0bd
000000c0: 4578 a23e 6a68 1f40 bb3a 4dbf 19b3 ef3f
000000d0: 7c02 543f 90e3 a43f a166 56c0 a895 0d40
000000e0: 1d4b 223f c413 113d 0335 65bf abcc 8240
000000f0: 074c a73e fa9d 073f de74 893f 9cf3 463f
00000100: 6f5d d9be af59 cebf ab83 56c0 ff91 733f
00000110: 8913 0d3f b0da 863f 3360 c53f 1edd 6b40
00000120: dd7f a2bf b066 90c0 7978 9d3f e965 6640
00000130: 1f15 82bf 48cd 843f b47e 1340 d90f 1c40
00000140: ec9c d6bf 94a8 fe3f 0a05 06c0 0a5a 2a40
00000150: 666c 03bb 6f4c 8cc0 0cc2 b9c0 1ac0 3d3e
00000160: 0df9 273f ac78 aabf e073 a8bf 1ccf 0040
00000170: 2507 98be 6a8e 0d3f 6156 5140 b372 033f
00000180: 1730 a4bf d4b7 a43f 15eb a43f 48cc f73f
00000190: 390a 1940 8c9e b4bb 1aeb 54be bedf 7bbe
000001a0: 147d 4ebd d043 ae3d 2797 1640 03ac 3fc0
000001b0: edb8 bc3f 17c7 f0be ca33 593f edd2 6ebf
000001c0: 623d 79bf 527e 89bf 8741 f2bd e1a3 1c3f
000001d0: 614d fa3e 1174 6dbf bfdc 973e e2a4 c4bf
000001e0: 4a69 27c0 0c1d 02bf 396b 3940 6afb 71bf
000001f0: 287e 01c0 121f 673f e7f3 32c0 b419 8440
00000200: 3e59 a7bf 8f7c 44c0 19e5 63c0 0a0d 0840
00000210: 97c6 8c40 06b2 4cc0 c202 3940 a582 38bf
00000220: 5ae1 93be 8eae a5bf 205a 63c0 d1a8 24c0
00000230: e8cf cabe 89e6 7fc0 7889 71c0 1df3 8dc0
00000240: 4bc8 5b3f d5b4 673f 0a38 133f 79bd cbbe
00000250: 4ece 41c0 d26f 8e3f 0d83 833f 866a 2bbf
00000260: dbd4 ce3d 0284 fa3e 79d3 4bbf 8ee6 a63e
00000270: e169 8d3f 4386 c8bf 4111 4cc0 40db 67bf
00000280: 4656 143f 0845 adbf af88 a93f c88a 233f
00000290: 2766 b3bf 7d26 933e 6a76 c5be 14d8 06be
000002a0: d6e5 3bbf 26b3 4c3e d2a6 67bf 73e3 a0bf
000002b0: d323 ba3e eb4d a73f c650 40bf 61c5 c03f
000002c0: 7691 953f 8726 743f 0031 b13e ce5e 723f
000002d0: dea9 97c0 f0d6 2fbf e389 ddbf ecf8 5d3e
000002e0: ad46 62be 5d5d 8bbf 0821 4d40 893a e33f
000002f0: 93b8 5cc0 5177 00c0 49b2 9dc0 df42 a43f
00000300: 7202 db3f 9f8b fabe 4acc 883f eae8 a640
00000310: e9ed 3d40 aaf2 00c0 a033 c0bd 1a69 15bf
00000320: 9861 31bf d7fe c2bd c46a 633f c1c6 92bf
00000330: 73dc 513f 80b7 a43f cc38 aa3f e813 6e3d
00000340: 1a03 0ec0 9922 fe3d ca69 bfbe 5dd2 f3be
00000350: e0be 13bf d553 22bf f64e 03bf 2b71 adbe
00000360: 776e 95bd 3302 5dbf ecb1 1cbf 2a21 04bf
00000370: 3d14 bb3f 97d4 dcbd b30f e93e 54d6 afbf
00000380: 0a7e 923e 1f3f c03f 4e43 e6be eda9 df3e
00000390: 8b64 64bf 2494 82bf 38b5 10bd 7a71 5f3f
000003a0: 3172 16be dd98 2bbf 33e8 02c0 5436 0240
000003b0: a67e 223d 758b 273f 12f3 e0be 889f f63d
000003c0: d543 f23c 657b 9c3e d77f 023f efed 743e
000003d0: 823b 02bf 8532 0cbe a704 76bf c3a4 713f
000003e0: bd0d c23e efaf e1be 78a1 6bbf 47f1 133e
000003f0: c8d5 95bf 2aca 14bf 99b7 823f 5397 b13f
